{"config": [{"config": {"name": "convolution2d_56", "nb_col": 5, "dim_ordering": "tf", "nb_filter": 30, "trainable": true, "subsample": [1, 1], "input_dtype": "float32", "activation": "linear", "W_regularizer": null, "W_constraint": null, "border_mode": "valid", "b_constraint": null, "nb_row": 5, "bias": true, "b_regularizer": null, "init": "glorot_uniform", "batch_input_shape": [null, 32, 32, 6], "activity_regularizer": null}, "class_name": "Convolution2D"}, {"config": {"name": "batchnormalization_1", "momentum": 0.99, "axis": -1, "beta_regularizer": null, "mode": 0, "trainable": true, "epsilon": 0.001, "gamma_regularizer": null}, "class_name": "BatchNormalization"}, {"config": {"name": "activation_1", "activation": "tanh", "trainable": true}, "class_name": "Activation"}, {"config": {"name": "dropout_71", "p": 0.5, "trainable": true}, "class_name": "Dropout"}, {"config": {"name": "convolution2d_57", "nb_col": 5, "nb_filter": 50, "trainable": true, "subsample": [1, 1], "dim_ordering": "tf", "activation": "linear", "W_regularizer": null, "W_constraint": null, "border_mode": "valid", "b_constraint": null, "nb_row": 5, "bias": true, "b_regularizer": null, "init": "glorot_uniform", "activity_regularizer": null}, "class_name": "Convolution2D"}, {"config": {"name": "batchnormalization_2", "momentum": 0.99, "axis": -1, "beta_regularizer": null, "mode": 0, "trainable": true, "epsilon": 0.001, "gamma_regularizer": null}, "class_name": "BatchNormalization"}, {"config": {"name": "activation_2", "activation": "tanh", "trainable": true}, "class_name": "Activation"}, {"config": {"name": "dropout_72", "p": 0.5, "trainable": true}, "class_name": "Dropout"}, {"config": {"name": "convolution2d_58", "nb_col": 5, "nb_filter": 60, "trainable": true, "subsample": [1, 1], "dim_ordering": "tf", "activation": "linear", "W_regularizer": null, "W_constraint": null, "border_mode": "valid", "b_constraint": null, "nb_row": 5, "bias": true, "b_regularizer": null, "init": "glorot_uniform", "activity_regularizer": null}, "class_name": "Convolution2D"}, {"config": {"name": "batchnormalization_3", "momentum": 0.99, "axis": -1, "beta_regularizer": null, "mode": 0, "trainable": true, "epsilon": 0.001, "gamma_regularizer": null}, "class_name": "BatchNormalization"}, {"config": {"name": "activation_3", "activation": "tanh", "trainable": true}, "class_name": "Activation"}, {"config": {"name": "dropout_73", "p": 0.5, "trainable": true}, "class_name": "Dropout"}, {"config": {"name": "convolution2d_59", "nb_col": 5, "nb_filter": 800, "trainable": true, "subsample": [1, 1], "dim_ordering": "tf", "activation": "linear", "W_regularizer": null, "W_constraint": null, "border_mode": "valid", "b_constraint": null, "nb_row": 5, "bias": true, "b_regularizer": null, "init": "glorot_uniform", "activity_regularizer": null}, "class_name": "Convolution2D"}, {"config": {"name": "batchnormalization_4", "momentum": 0.99, "axis": -1, "beta_regularizer": null, "mode": 0, "trainable": true, "epsilon": 0.001, "gamma_regularizer": null}, "class_name": "BatchNormalization"}, {"config": {"name": "activation_4", "activation": "tanh", "trainable": true}, "class_name": "Activation"}, {"config": {"name": "dropout_74", "p": 0.5, "trainable": true}, "class_name": "Dropout"}, {"config": {"name": "convolution2d_60", "nb_col": 3, "nb_filter": 100, "trainable": true, "subsample": [1, 1], "dim_ordering": "tf", "activation": "linear", "W_regularizer": null, "W_constraint": null, "border_mode": "valid", "b_constraint": null, "nb_row": 3, "bias": true, "b_regularizer": null, "init": "glorot_uniform", "activity_regularizer": null}, "class_name": "Convolution2D"}, {"config": {"name": "batchnormalization_5", "momentum": 0.99, "axis": -1, "beta_regularizer": null, "mode": 0, "trainable": true, "epsilon": 0.001, "gamma_regularizer": null}, "class_name": "BatchNormalization"}, {"config": {"name": "activation_5", "activation": "tanh", "trainable": true}, "class_name": "Activation"}, {"config": {"name": "dropout_75", "p": 0.5, "trainable": true}, "class_name": "Dropout"}, {"config": {"name": "convolution2d_61", "nb_col": 3, "nb_filter": 110, "trainable": true, "subsample": [1, 1], "dim_ordering": "tf", "activation": "linear", "W_regularizer": null, "W_constraint": null, "border_mode": "valid", "b_constraint": null, "nb_row": 3, "bias": true, "b_regularizer": null, "init": "glorot_uniform", "activity_regularizer": null}, "class_name": "Convolution2D"}, {"config": {"name": "batchnormalization_6", "momentum": 0.99, "axis": -1, "beta_regularizer": null, "mode": 0, "trainable": true, "epsilon": 0.001, "gamma_regularizer": null}, "class_name": "BatchNormalization"}, {"config": {"name": "activation_6", "activation": "tanh", "trainable": true}, "class_name": "Activation"}, {"config": {"name": "dropout_76", "p": 0.5, "trainable": true}, "class_name": "Dropout"}, {"config": {"name": "convolution2d_62", "nb_col": 3, "nb_filter": 130, "trainable": true, "subsample": [1, 1], "dim_ordering": "tf", "activation": "linear", "W_regularizer": null, "W_constraint": null, "border_mode": "valid", "b_constraint": null, "nb_row": 3, "bias": true, "b_regularizer": null, "init": "glorot_uniform", "activity_regularizer": null}, "class_name": "Convolution2D"}, {"config": {"name": "batchnormalization_7", "momentum": 0.99, "axis": -1, "beta_regularizer": null, "mode": 0, "trainable": true, "epsilon": 0.001, "gamma_regularizer": null}, "class_name": "BatchNormalization"}, {"config": {"name": "activation_7", "activation": "tanh", "trainable": true}, "class_name": "Activation"}, {"config": {"name": "dropout_77", "p": 0.5, "trainable": true}, "class_name": "Dropout"}, {"config": {"name": "convolution2d_63", "nb_col": 3, "nb_filter": 130, "trainable": true, "subsample": [1, 1], "dim_ordering": "tf", "activation": "linear", "W_regularizer": null, "W_constraint": null, "border_mode": "valid", "b_constraint": null, "nb_row": 3, "bias": true, "b_regularizer": null, "init": "glorot_uniform", "activity_regularizer": null}, "class_name": "Convolution2D"}, {"config": {"name": "batchnormalization_8", "momentum": 0.99, "axis": -1, "beta_regularizer": null, "mode": 0, "trainable": true, "epsilon": 0.001, "gamma_regularizer": null}, "class_name": "BatchNormalization"}, {"config": {"name": "activation_8", "activation": "tanh", "trainable": true}, "class_name": "Activation"}, {"config": {"name": "dropout_78", "p": 0.5, "trainable": true}, "class_name": "Dropout"}, {"config": {"name": "convolution2d_64", "nb_col": 3, "nb_filter": 130, "trainable": true, "subsample": [1, 1], "dim_ordering": "tf", "activation": "linear", "W_regularizer": null, "W_constraint": null, "border_mode": "valid", "b_constraint": null, "nb_row": 3, "bias": true, "b_regularizer": null, "init": "glorot_uniform", "activity_regularizer": null}, "class_name": "Convolution2D"}, {"config": {"name": "batchnormalization_9", "momentum": 0.99, "axis": -1, "beta_regularizer": null, "mode": 0, "trainable": true, "epsilon": 0.001, "gamma_regularizer": null}, "class_name": "BatchNormalization"}, {"config": {"name": "activation_9", "activation": "tanh", "trainable": true}, "class_name": "Activation"}, {"config": {"name": "dropout_79", "p": 0.5, "trainable": true}, "class_name": "Dropout"}, {"config": {"name": "convolution2d_65", "nb_col": 3, "nb_filter": 130, "trainable": true, "subsample": [1, 1], "dim_ordering": "tf", "activation": "linear", "W_regularizer": null, "W_constraint": null, "border_mode": "valid", "b_constraint": null, "nb_row": 3, "bias": true, "b_regularizer": null, "init": "glorot_uniform", "activity_regularizer": null}, "class_name": "Convolution2D"}, {"config": {"name": "batchnormalization_10", "momentum": 0.99, "axis": -1, "beta_regularizer": null, "mode": 0, "trainable": true, "epsilon": 0.001, "gamma_regularizer": null}, "class_name": "BatchNormalization"}, {"config": {"name": "activation_10", "activation": "tanh", "trainable": true}, "class_name": "Activation"}, {"config": {"name": "dropout_80", "p": 0.5, "trainable": true}, "class_name": "Dropout"}, {"config": {"name": "convolution2d_66", "nb_col": 3, "nb_filter": 130, "trainable": true, "subsample": [1, 1], "dim_ordering": "tf", "activation": "linear", "W_regularizer": null, "W_constraint": null, "border_mode": "valid", "b_constraint": null, "nb_row": 3, "bias": true, "b_regularizer": null, "init": "glorot_uniform", "activity_regularizer": null}, "class_name": "Convolution2D"}, {"config": {"name": "batchnormalization_11", "momentum": 0.99, "axis": -1, "beta_regularizer": null, "mode": 0, "trainable": true, "epsilon": 0.001, "gamma_regularizer": null}, "class_name": "BatchNormalization"}, {"config": {"name": "activation_11", "activation": "tanh", "trainable": true}, "class_name": "Activation"}, {"config": {"name": "dropout_81", "p": 0.5, "trainable": true}, "class_name": "Dropout"}, {"config": {"name": "flatten_6", "trainable": true}, "class_name": "Flatten"}, {"config": {"name": "dense_21", "input_dim": 520, "output_dim": 130, "W_constraint": null, "activation": "linear", "W_regularizer": {"name": "L1L2Regularizer", "l1": 0.0, "l2": 0.009999999776482582}, "b_constraint": null, "bias": true, "b_regularizer": null, "init": "glorot_uniform", "trainable": true, "activity_regularizer": null}, "class_name": "Dense"}, {"config": {"name": "batchnormalization_12", "momentum": 0.99, "axis": -1, "beta_regularizer": null, "mode": 0, "trainable": true, "epsilon": 0.001, "gamma_regularizer": null}, "class_name": "BatchNormalization"}, {"config": {"name": "activation_12", "activation": "tanh", "trainable": true}, "class_name": "Activation"}, {"config": {"name": "dropout_82", "p": 0.5, "trainable": true}, "class_name": "Dropout"}, {"config": {"name": "dense_22", "input_dim": 130, "output_dim": 120, "W_constraint": null, "activation": "linear", "W_regularizer": {"name": "L1L2Regularizer", "l1": 0.0, "l2": 0.009999999776482582}, "b_constraint": null, "bias": true, "b_regularizer": null, "init": "glorot_uniform", "trainable": true, "activity_regularizer": null}, "class_name": "Dense"}, {"config": {"name": "batchnormalization_13", "momentum": 0.99, "axis": -1, "beta_regularizer": null, "mode": 0, "trainable": true, "epsilon": 0.001, "gamma_regularizer": null}, "class_name": "BatchNormalization"}, {"config": {"name": "activation_13", "activation": "tanh", "trainable": true}, "class_name": "Activation"}, {"config": {"name": "dropout_83", "p": 0.5, "trainable": true}, "class_name": "Dropout"}, {"config": {"name": "dense_23", "input_dim": 120, "output_dim": 120, "W_constraint": null, "activation": "linear", "W_regularizer": {"name": "L1L2Regularizer", "l1": 0.0, "l2": 0.009999999776482582}, "b_constraint": null, "bias": true, "b_regularizer": null, "init": "glorot_uniform", "trainable": true, "activity_regularizer": null}, "class_name": "Dense"}, {"config": {"name": "batchnormalization_14", "momentum": 0.99, "axis": -1, "beta_regularizer": null, "mode": 0, "trainable": true, "epsilon": 0.001, "gamma_regularizer": null}, "class_name": "BatchNormalization"}, {"config": {"name": "activation_14", "activation": "tanh", "trainable": true}, "class_name": "Activation"}, {"config": {"name": "dropout_84", "p": 0.5, "trainable": true}, "class_name": "Dropout"}, {"config": {"name": "dense_24", "input_dim": 120, "output_dim": 43, "W_constraint": null, "activation": "softmax", "W_regularizer": {"name": "L1L2Regularizer", "l1": 0.0, "l2": 0.009999999776482582}, "b_constraint": null, "bias": true, "b_regularizer": null, "init": "glorot_uniform", "trainable": true, "activity_regularizer": null}, "class_name": "Dense"}], "keras_version": "1.2.2", "class_name": "Sequential"}